…
I1212 22:18:35.843946 13544 net.cpp:294] The NetState phase (0) differed from the phase (1) specified by a rule in layer accuracy
I1212 22:18:35.844944 13544 net.cpp:51] Initializing net from parameters:
name: "CIFAR10_full"
state {
  phase: TRAIN
  level: 0
  stage: ""
}
layer {
  name: "cifar"
  type: "Data"
  top: "data"
  top: "label"
  include {
    phase: TRAIN
  }
  transform_param {
    mean_file: "I:/86/caffe-windows/examples/cifar10/mean.binaryproto"
  }
  data_param {
    source: "I:/86/caffe-windows/examples/cifar10/cifar10_train_lmdb"
    batch_size: 32
    backend: LMDB
  }
}
layer {
  name: "conv1"
  type: "Convolution"
  bottom: "data"
  top: "conv1"
  param {
    lr_mult: 1
  }
  param {
    lr_mult: 2
  }
  convolution_param {
    num_output: 32
    pad: 2
    kernel_size: 5
    stride: 1
    weight_filler {
      type: "gaussian"
      std: 0.0001
    }
    bias_filler {
      type: "constant"
    }
  }
}
layer {
  name: "pool1"
  type: "Pooling"
  bottom: "conv1"
  top: "pool1"
  pooling_param {
    pool: MAX
    kernel_size: 3
    stride: 2
  }
}
layer {
  name: "relu1"
  type: "ReLU"
  bottom: "pool1"
  top: "pool1"
}
layer {
  name: "norm1"
  type: "LRN"
  bottom: "pool1"
  top: "norm1"
  lrn_param {
    local_size: 3
    alpha: 5e-05
    beta: 0.75
    norm_region: WITHIN_CHANNEL
  }
}
layer {
  name: "conv2"
  type: "Convolution"
  bottom: "norm1"
  top: "conv2"
  param {
    lr_mult: 1
  }
  param {
    lr_mult: 2
  }
  convolution_param {
    num_output: 32
    pad: 2
    kernel_size: 5
    stride: 1
    weight_filler {
      type: "gaussian"
      std: 0.01
    }
    bias_filler {
      type: "constant"
    }
  }
}
layer {
  name: "relu2"
  type: "ReLU"
  bottom: "conv2"
  top: "conv2"
}
layer {
  name: "pool2"
  type: "Pooling"
  bottom: "conv2"
  top: "pool2"
  pooling_param {
    pool: AVE
    kernel_size: 3
    stride: 2
  }
}
layer {
  name: "norm2"
  type: "LRN"
  bottom: "pool2"
  top: "norm2"
  lrn_param {
    local_size: 3
    alpha: 5e-05
    beta: 0.75
    norm_region: WITHIN_CHANNEL
  }
}
layer {
  name: "conv3"
  type: "Convolution"
  bottom: "norm2"
  top: "conv3"
  convolution_param {
    num_output: 64
    pad: 2
    kernel_size: 5
    stride: 1
    weight_filler {
      type: "gaussian"
      std: 0.01
    }
    bias_filler {
      type: "constant"
    }
  }
}
layer {
  name: "relu3"
  type: "ReLU"
  bottom: "conv3"
  top: "conv3"
}
layer {
  name: "pool3"
  type: "Pooling"
  bottom: "conv3"
  top: "pool3"
  pooling_param {
    pool: AVE
    kernel_size: 3
    stride: 2
  }
}
layer {
  name: "ip1"
  type: "InnerProduct"
  bottom: "pool3"
  top: "ip1"
  param {
    lr_mult: 1
    decay_mult: 250
  }
  param {
    lr_mult: 2
    decay_mult: 0
  }
  inner_product_param {
    num_output: 10
    weight_filler {
      type: "gaussian"
      std: 0.01
    }
    bias_filler {
      type: "constant"
    }
  }
}
layer {
  name: "loss"
  type: "SoftmaxWithLoss"
  bottom: "ip1"
  bottom: "label"
  top: "loss"
}
I1212 22:18:35.845944 13544 layer_factory.cpp:58] Creating layer cifar
I1212 22:18:35.846944 13544 db_lmdb.cpp:40] Opened lmdb I:/86/caffe-windows/examples/cifar10/cifar10_train_lmdb
I1212 22:18:35.846944 13544 net.cpp:84] Creating Layer cifar
I1212 22:18:35.846944 13544 net.cpp:380] cifar -> data
I1212 22:18:35.847944 13544 net.cpp:380] cifar -> label
I1212 22:18:35.847944 13544 data_transformer.cpp:25] Loading mean file from: I:/86/caffe-windows/examples/cifar10/mean.binaryproto
I1212 22:18:35.849946 13544 data_layer.cpp:45] output data size: 32,3,32,32
I1212 22:18:35.851943 13544 common.cpp:36] System entropy source not available, using fallback algorithm to generate seed instead.
I1212 22:18:35.852946 13544 net.cpp:122] Setting up cifar
I1212 22:18:35.853942 13544 net.cpp:129] Top shape: 32 3 32 32 (98304)
I1212 22:18:35.853942 13544 net.cpp:129] Top shape: 32 (32)
I1212 22:18:35.854943 13544 net.cpp:137] Memory required for data: 393344
I1212 22:18:35.854943 13544 layer_factory.cpp:58] Creating layer conv1
I1212 22:18:35.854943  7224 common.cpp:36] System entropy source not available, using fallback algorithm to generate seed instead.
I1212 22:18:35.854943 13544 net.cpp:84] Creating Layer conv1
I1212 22:18:35.855942 13544 net.cpp:406] conv1 <- data
I1212 22:18:35.855942 13544 net.cpp:380] conv1 -> conv1
I1212 22:18:36.108860 13544 net.cpp:122] Setting up conv1
I1212 22:18:36.108860 13544 net.cpp:129] Top shape: 32 32 32 32 (1048576)
I1212 22:18:36.109860 13544 net.cpp:137] Memory required for data: 4587648
I1212 22:18:36.109860 13544 layer_factory.cpp:58] Creating layer pool1
I1212 22:18:36.110860 13544 net.cpp:84] Creating Layer pool1
I1212 22:18:36.110860 13544 net.cpp:406] pool1 <- conv1
I1212 22:18:36.111860 13544 net.cpp:380] pool1 -> pool1
I1212 22:18:36.111860 13544 net.cpp:122] Setting up pool1
I1212 22:18:36.111860 13544 net.cpp:129] Top shape: 32 32 16 16 (262144)
I1212 22:18:36.112859 13544 net.cpp:137] Memory required for data: 5636224
I1212 22:18:36.113858 13544 layer_factory.cpp:58] Creating layer relu1
I1212 22:18:36.113858 13544 net.cpp:84] Creating Layer relu1
I1212 22:18:36.113858 13544 net.cpp:406] relu1 <- pool1
I1212 22:18:36.113858 13544 net.cpp:367] relu1 -> pool1 (in-place)
I1212 22:18:36.116858 13544 net.cpp:122] Setting up relu1
I1212 22:18:36.116858 13544 net.cpp:129] Top shape: 32 32 16 16 (262144)
I1212 22:18:36.117859 13544 net.cpp:137] Memory required for data: 6684800
I1212 22:18:36.118858 13544 layer_factory.cpp:58] Creating layer norm1
I1212 22:18:36.118858 13544 net.cpp:84] Creating Layer norm1
I1212 22:18:36.118858 13544 net.cpp:406] norm1 <- pool1
I1212 22:18:36.119858 13544 net.cpp:380] norm1 -> norm1
I1212 22:18:36.121858 13544 net.cpp:122] Setting up norm1
I1212 22:18:36.121858 13544 net.cpp:129] Top shape: 32 32 16 16 (262144)
I1212 22:18:36.121858 13544 net.cpp:137] Memory required for data: 7733376
I1212 22:18:36.121858 13544 layer_factory.cpp:58] Creating layer conv2
I1212 22:18:36.122856 13544 net.cpp:84] Creating Layer conv2
I1212 22:18:36.122856 13544 net.cpp:406] conv2 <- norm1
I1212 22:18:36.122856 13544 net.cpp:380] conv2 -> conv2
I1212 22:18:36.129854 13544 net.cpp:122] Setting up conv2
I1212 22:18:36.129854 13544 net.cpp:129] Top shape: 32 32 16 16 (262144)
I1212 22:18:36.129854 13544 net.cpp:137] Memory required for data: 8781952
I1212 22:18:36.130853 13544 layer_factory.cpp:58] Creating layer relu2
I1212 22:18:36.130853 13544 net.cpp:84] Creating Layer relu2
I1212 22:18:36.130853 13544 net.cpp:406] relu2 <- conv2
I1212 22:18:36.130853 13544 net.cpp:367] relu2 -> conv2 (in-place)
I1212 22:18:36.131853 13544 net.cpp:122] Setting up relu2
I1212 22:18:36.132854 13544 net.cpp:129] Top shape: 32 32 16 16 (262144)
I1212 22:18:36.132854 13544 net.cpp:137] Memory required for data: 9830528
I1212 22:18:36.132854 13544 layer_factory.cpp:58] Creating layer pool2
I1212 22:18:36.133852 13544 net.cpp:84] Creating Layer pool2
I1212 22:18:36.135854 13544 net.cpp:406] pool2 <- conv2
I1212 22:18:36.135854 13544 net.cpp:380] pool2 -> pool2
I1212 22:18:36.138851 13544 net.cpp:122] Setting up pool2
I1212 22:18:36.138851 13544 net.cpp:129] Top shape: 32 32 8 8 (65536)
I1212 22:18:36.139851 13544 net.cpp:137] Memory required for data: 10092672
I1212 22:18:36.139851 13544 layer_factory.cpp:58] Creating layer norm2
I1212 22:18:36.139851 13544 net.cpp:84] Creating Layer norm2
I1212 22:18:36.140851 13544 net.cpp:406] norm2 <- pool2
I1212 22:18:36.140851 13544 net.cpp:380] norm2 -> norm2
I1212 22:18:36.141850 13544 net.cpp:122] Setting up norm2
I1212 22:18:36.141850 13544 net.cpp:129] Top shape: 32 32 8 8 (65536)
I1212 22:18:36.141850 13544 net.cpp:137] Memory required for data: 10354816
I1212 22:18:36.142850 13544 layer_factory.cpp:58] Creating layer conv3
I1212 22:18:36.142850 13544 net.cpp:84] Creating Layer conv3
I1212 22:18:36.142850 13544 net.cpp:406] conv3 <- norm2
I1212 22:18:36.143849 13544 net.cpp:380] conv3 -> conv3
I1212 22:18:36.159845 13544 net.cpp:122] Setting up conv3
I1212 22:18:36.159845 13544 net.cpp:129] Top shape: 32 64 8 8 (131072)
I1212 22:18:36.160845 13544 net.cpp:137] Memory required for data: 10879104
I1212 22:18:36.160845 13544 layer_factory.cpp:58] Creating layer relu3
I1212 22:18:36.160845 13544 net.cpp:84] Creating Layer relu3
I1212 22:18:36.161844 13544 net.cpp:406] relu3 <- conv3
I1212 22:18:36.161844 13544 net.cpp:367] relu3 -> conv3 (in-place)
I1212 22:18:36.162843 13544 net.cpp:122] Setting up relu3
I1212 22:18:36.163843 13544 net.cpp:129] Top shape: 32 64 8 8 (131072)
I1212 22:18:36.163843 13544 net.cpp:137] Memory required for data: 11403392
I1212 22:18:36.167843 13544 layer_factory.cpp:58] Creating layer pool3
I1212 22:18:36.167843 13544 net.cpp:84] Creating Layer pool3
I1212 22:18:36.168843 13544 net.cpp:406] pool3 <- conv3
I1212 22:18:36.168843 13544 net.cpp:380] pool3 -> pool3
I1212 22:18:36.171840 13544 net.cpp:122] Setting up pool3
I1212 22:18:36.171840 13544 net.cpp:129] Top shape: 32 64 4 4 (32768)
I1212 22:18:36.171840 13544 net.cpp:137] Memory required for data: 11534464
I1212 22:18:36.171840 13544 layer_factory.cpp:58] Creating layer ip1
I1212 22:18:36.172840 13544 net.cpp:84] Creating Layer ip1
I1212 22:18:36.172840 13544 net.cpp:406] ip1 <- pool3
I1212 22:18:36.172840 13544 net.cpp:380] ip1 -> ip1
I1212 22:18:36.173840 13544 net.cpp:122] Setting up ip1
I1212 22:18:36.173840 13544 net.cpp:129] Top shape: 32 10 (320)
I1212 22:18:36.173840 13544 net.cpp:137] Memory required for data: 11535744
I1212 22:18:36.173840 13544 layer_factory.cpp:58] Creating layer loss
I1212 22:18:36.174839 13544 net.cpp:84] Creating Layer loss
I1212 22:18:36.174839 13544 net.cpp:406] loss <- ip1
I1212 22:18:36.174839 13544 net.cpp:406] loss <- label
I1212 22:18:36.174839 13544 net.cpp:380] loss -> loss
I1212 22:18:36.175839 13544 layer_factory.cpp:58] Creating layer loss
…
I1212 22:18:36.186836 13544 net.cpp:294] The NetState phase (1) differed from the phase (0) specified by a rule in layer cifar
I1212 22:18:36.187836 13544 net.cpp:51] Initializing net from parameters:
name: "CIFAR10_full"
state {
  phase: TEST
}
layer {
  name: "cifar"
  type: "Data"
  top: "data"
  top: "label"
  include {
    phase: TEST
  }
  transform_param {
    mean_file: "I:/86/caffe-windows/examples/cifar10/mean.binaryproto"
  }
  data_param {
    source: "I:/86/caffe-windows/examples/cifar10/cifar10_test_lmdb"
    batch_size: 10
    backend: LMDB
  }
}
layer {
  name: "conv1"
  type: "Convolution"
  bottom: "data"
  top: "conv1"
  param {
    lr_mult: 1
  }
  param {
    lr_mult: 2
  }
  convolution_param {
    num_output: 32
    pad: 2
    kernel_size: 5
    stride: 1
    weight_filler {
      type: "gaussian"
      std: 0.0001
    }
    bias_filler {
      type: "constant"
    }
  }
}
layer {
  name: "pool1"
  type: "Pooling"
  bottom: "conv1"
  top: "pool1"
  pooling_param {
    pool: MAX
    kernel_size: 3
    stride: 2
  }
}
layer {
  name: "relu1"
  type: "ReLU"
  bottom: "pool1"
  top: "pool1"
}
layer {
  name: "norm1"
  type: "LRN"
  bottom: "pool1"
  top: "norm1"
  lrn_param {
    local_size: 3
    alpha: 5e-05
    beta: 0.75
    norm_region: WITHIN_CHANNEL
  }
}
layer {
  name: "conv2"
  type: "Convolution"
  bottom: "norm1"
  top: "conv2"
  param {
    lr_mult: 1
  }
  param {
    lr_mult: 2
  }
  convolution_param {
    num_output: 32
    pad: 2
    kernel_size: 5
    stride: 1
    weight_filler {
      type: "gaussian"
      std: 0.01
    }
    bias_filler {
      type: "constant"
    }
  }
}
layer {
  name: "relu2"
  type: "ReLU"
  bottom: "conv2"
  top: "conv2"
}
layer {
  name: "pool2"
  type: "Pooling"
  bottom: "conv2"
  top: "pool2"
  pooling_param {
    pool: AVE
    kernel_size: 3
    stride: 2
  }
}
layer {
  name: "norm2"
  type: "LRN"
  bottom: "pool2"
  top: "norm2"
  lrn_param {
    local_size: 3
    alpha: 5e-05
    beta: 0.75
    norm_region: WITHIN_CHANNEL
  }
}
layer {
  name: "conv3"
  type: "Convolution"
  bottom: "norm2"
  top: "conv3"
  convolution_param {
    num_output: 64
    pad: 2
    kernel_size: 5
    stride: 1
    weight_filler {
      type: "gaussian"
      std: 0.01
    }
    bias_filler {
      type: "constant"
    }
  }
}
layer {
  name: "relu3"
  type: "ReLU"
  bottom: "conv3"
  top: "conv3"
}
layer {
  name: "pool3"
  type: "Pooling"
  bottom: "conv3"
  top: "pool3"
  pooling_param {
    pool: AVE
    kernel_size: 3
    stride: 2
  }
}
layer {
  name: "ip1"
  type: "InnerProduct"
  bottom: "pool3"
  top: "ip1"
  param {
    lr_mult: 1
    decay_mult: 250
  }
  param {
    lr_mult: 2
    decay_mult: 0
  }
  inner_product_param {
    num_output: 10
    weight_filler {
      type: "gaussian"
      std: 0.01
    }
    bias_filler {
      type: "constant"
    }
  }
}
layer {
  name: "accuracy"
  type: "Accuracy"
  bottom: "ip1"
  bottom: "label"
  top: "accuracy"
  include {
    phase: TEST
  }
}
layer {
  name: "loss"
  type: "SoftmaxWithLoss"
  bottom: "ip1"
  bottom: "label"
  top: "loss"
}
I1212 22:18:36.188835 13544 layer_factory.cpp:58] Creating layer cifar
I1212 22:18:36.189834 13544 db_lmdb.cpp:40] Opened lmdb I:/86/caffe-windows/examples/cifar10/cifar10_test_lmdb
I1212 22:18:36.189834 13544 net.cpp:84] Creating Layer cifar
I1212 22:18:36.189834 13544 net.cpp:380] cifar -> data
I1212 22:18:36.189834 13544 net.cpp:380] cifar -> label
I1212 22:18:36.190834 13544 data_transformer.cpp:25] Loading mean file from: I:/86/caffe-windows/examples/cifar10/mean.binaryproto
I1212 22:18:36.190834 13544 data_layer.cpp:45] output data size: 10,3,32,32
I1212 22:18:36.192834 13544 net.cpp:122] Setting up cifar
I1212 22:18:36.192834 13544 net.cpp:129] Top shape: 10 3 32 32 (30720)
I1212 22:18:36.192834 13544 net.cpp:129] Top shape: 10 (10)
I1212 22:18:36.193835 13544 net.cpp:137] Memory required for data: 122920
I1212 22:18:36.193835 13544 layer_factory.cpp:58] Creating layer label_cifar_1_split
I1212 22:18:36.193835   740 common.cpp:36] System entropy source not available, using fallback algorithm to generate seed instead.
I1212 22:18:36.193835 13544 net.cpp:84] Creating Layer label_cifar_1_split
I1212 22:18:36.194833 13544 net.cpp:406] label_cifar_1_split <- label
I1212 22:18:36.194833 13544 net.cpp:380] label_cifar_1_split -> label_cifar_1_split_0
I1212 22:18:36.194833 13544 net.cpp:380] label_cifar_1_split -> label_cifar_1_split_1
I1212 22:18:36.200832 13544 net.cpp:122] Setting up label_cifar_1_split
I1212 22:18:36.201833 13544 net.cpp:129] Top shape: 10 (10)
I1212 22:18:36.201833 13544 net.cpp:129] Top shape: 10 (10)
I1212 22:18:36.202832 13544 net.cpp:137] Memory required for data: 123000
I1212 22:18:36.202832 13544 layer_factory.cpp:58] Creating layer conv1
I1212 22:18:36.203832 13544 net.cpp:84] Creating Layer conv1
I1212 22:18:36.203832 13544 net.cpp:406] conv1 <- data
I1212 22:18:36.203832 13544 net.cpp:380] conv1 -> conv1
I1212 22:18:36.209829 13544 net.cpp:122] Setting up conv1
I1212 22:18:36.210829 13544 net.cpp:129] Top shape: 10 32 32 32 (327680)
I1212 22:18:36.210829 13544 net.cpp:137] Memory required for data: 1433720
I1212 22:18:36.210829 13544 layer_factory.cpp:58] Creating layer pool1
I1212 22:18:36.211828 13544 net.cpp:84] Creating Layer pool1
I1212 22:18:36.212828 13544 net.cpp:406] pool1 <- conv1
I1212 22:18:36.212828 13544 net.cpp:380] pool1 -> pool1
I1212 22:18:36.213827 13544 net.cpp:122] Setting up pool1
I1212 22:18:36.213827 13544 net.cpp:129] Top shape: 10 32 16 16 (81920)
I1212 22:18:36.213827 13544 net.cpp:137] Memory required for data: 1761400
I1212 22:18:36.214828 13544 layer_factory.cpp:58] Creating layer relu1
I1212 22:18:36.214828 13544 net.cpp:84] Creating Layer relu1
I1212 22:18:36.214828 13544 net.cpp:406] relu1 <- pool1
I1212 22:18:36.214828 13544 net.cpp:367] relu1 -> pool1 (in-place)
I1212 22:18:36.217826 13544 net.cpp:122] Setting up relu1
I1212 22:18:36.217826 13544 net.cpp:129] Top shape: 10 32 16 16 (81920)
I1212 22:18:36.218827 13544 net.cpp:137] Memory required for data: 2089080
I1212 22:18:36.219827 13544 layer_factory.cpp:58] Creating layer norm1
I1212 22:18:36.219827 13544 net.cpp:84] Creating Layer norm1
I1212 22:18:36.220825 13544 net.cpp:406] norm1 <- pool1
I1212 22:18:36.220825 13544 net.cpp:380] norm1 -> norm1
I1212 22:18:36.223824 13544 net.cpp:122] Setting up norm1
I1212 22:18:36.223824 13544 net.cpp:129] Top shape: 10 32 16 16 (81920)
I1212 22:18:36.223824 13544 net.cpp:137] Memory required for data: 2416760
I1212 22:18:36.224824 13544 layer_factory.cpp:58] Creating layer conv2
I1212 22:18:36.224824 13544 net.cpp:84] Creating Layer conv2
I1212 22:18:36.224824 13544 net.cpp:406] conv2 <- norm1
I1212 22:18:36.224824 13544 net.cpp:380] conv2 -> conv2
I1212 22:18:36.236820 13544 net.cpp:122] Setting up conv2
I1212 22:18:36.236820 13544 net.cpp:129] Top shape: 10 32 16 16 (81920)
I1212 22:18:36.237819 13544 net.cpp:137] Memory required for data: 2744440
I1212 22:18:36.237819 13544 layer_factory.cpp:58] Creating layer relu2
I1212 22:18:36.237819 13544 net.cpp:84] Creating Layer relu2
I1212 22:18:36.238819 13544 net.cpp:406] relu2 <- conv2
I1212 22:18:36.238819 13544 net.cpp:367] relu2 -> conv2 (in-place)
I1212 22:18:36.241819 13544 net.cpp:122] Setting up relu2
I1212 22:18:36.241819 13544 net.cpp:129] Top shape: 10 32 16 16 (81920)
I1212 22:18:36.242820 13544 net.cpp:137] Memory required for data: 3072120
I1212 22:18:36.242820 13544 layer_factory.cpp:58] Creating layer pool2
I1212 22:18:36.242820 13544 net.cpp:84] Creating Layer pool2
I1212 22:18:36.244818 13544 net.cpp:406] pool2 <- conv2
I1212 22:18:36.244818 13544 net.cpp:380] pool2 -> pool2
I1212 22:18:36.246817 13544 net.cpp:122] Setting up pool2
I1212 22:18:36.246817 13544 net.cpp:129] Top shape: 10 32 8 8 (20480)
I1212 22:18:36.246817 13544 net.cpp:137] Memory required for data: 3154040
I1212 22:18:36.247817 13544 layer_factory.cpp:58] Creating layer norm2
I1212 22:18:36.247817 13544 net.cpp:84] Creating Layer norm2
I1212 22:18:36.247817 13544 net.cpp:406] norm2 <- pool2
I1212 22:18:36.248817 13544 net.cpp:380] norm2 -> norm2
I1212 22:18:36.251817 13544 net.cpp:122] Setting up norm2
I1212 22:18:36.251817 13544 net.cpp:129] Top shape: 10 32 8 8 (20480)
I1212 22:18:36.252815 13544 net.cpp:137] Memory required for data: 3235960
I1212 22:18:36.252815 13544 layer_factory.cpp:58] Creating layer conv3
I1212 22:18:36.252815 13544 net.cpp:84] Creating Layer conv3
I1212 22:18:36.253815 13544 net.cpp:406] conv3 <- norm2
I1212 22:18:36.253815 13544 net.cpp:380] conv3 -> conv3
I1212 22:18:36.260813 13544 net.cpp:122] Setting up conv3
I1212 22:18:36.260813 13544 net.cpp:129] Top shape: 10 64 8 8 (40960)
I1212 22:18:36.260813 13544 net.cpp:137] Memory required for data: 3399800
I1212 22:18:36.261812 13544 layer_factory.cpp:58] Creating layer relu3
I1212 22:18:36.261812 13544 net.cpp:84] Creating Layer relu3
I1212 22:18:36.261812 13544 net.cpp:406] relu3 <- conv3
I1212 22:18:36.262811 13544 net.cpp:367] relu3 -> conv3 (in-place)
I1212 22:18:36.264811 13544 net.cpp:122] Setting up relu3
I1212 22:18:36.265811 13544 net.cpp:129] Top shape: 10 64 8 8 (40960)
I1212 22:18:36.265811 13544 net.cpp:137] Memory required for data: 3563640
I1212 22:18:36.265811 13544 layer_factory.cpp:58] Creating layer pool3
I1212 22:18:36.266810 13544 net.cpp:84] Creating Layer pool3
I1212 22:18:36.266810 13544 net.cpp:406] pool3 <- conv3
I1212 22:18:36.266810 13544 net.cpp:380] pool3 -> pool3
I1212 22:18:36.268811 13544 net.cpp:122] Setting up pool3
I1212 22:18:36.268811 13544 net.cpp:129] Top shape: 10 64 4 4 (10240)
I1212 22:18:36.268811 13544 net.cpp:137] Memory required for data: 3604600
I1212 22:18:36.269810 13544 layer_factory.cpp:58] Creating layer ip1
I1212 22:18:36.269810 13544 net.cpp:84] Creating Layer ip1
I1212 22:18:36.269810 13544 net.cpp:406] ip1 <- pool3
I1212 22:18:36.270809 13544 net.cpp:380] ip1 -> ip1
I1212 22:18:36.270809 13544 net.cpp:122] Setting up ip1
I1212 22:18:36.270809 13544 net.cpp:129] Top shape: 10 10 (100)
I1212 22:18:36.270809 13544 net.cpp:137] Memory required for data: 3605000
I1212 22:18:36.271808 13544 layer_factory.cpp:58] Creating layer ip1_ip1_0_split
I1212 22:18:36.271808 13544 net.cpp:84] Creating Layer ip1_ip1_0_split
I1212 22:18:36.271808 13544 net.cpp:406] ip1_ip1_0_split <- ip1
I1212 22:18:36.272809 13544 net.cpp:380] ip1_ip1_0_split -> ip1_ip1_0_split_0
I1212 22:18:36.272809 13544 net.cpp:380] ip1_ip1_0_split -> ip1_ip1_0_split_1
I1212 22:18:36.272809 13544 net.cpp:122] Setting up ip1_ip1_0_split
I1212 22:18:36.272809 13544 net.cpp:129] Top shape: 10 10 (100)
I1212 22:18:36.273808 13544 net.cpp:129] Top shape: 10 10 (100)
I1212 22:18:36.273808 13544 net.cpp:137] Memory required for data: 3605800
I1212 22:18:36.273808 13544 layer_factory.cpp:58] Creating layer accuracy
I1212 22:18:36.274807 13544 net.cpp:84] Creating Layer accuracy
I1212 22:18:36.274807 13544 net.cpp:406] accuracy <- ip1_ip1_0_split_0
I1212 22:18:36.274807 13544 net.cpp:406] accuracy <- label_cifar_1_split_0
I1212 22:18:36.274807 13544 net.cpp:380] accuracy -> accuracy
…
