…
I1211 22:31:47.001422 14212 net.cpp:294] The NetState phase (0) differed from the phase (1) specified by a rule in layer accuracy
I1211 22:31:47.001422 14212 net.cpp:51] Initializing net from parameters:
name: "CIFAR10_full"
state {
  phase: TRAIN
  level: 0
  stage: ""
}
layer {
  name: "cifar"
  type: "Data"
  top: "data"
  top: "label"
  include {
    phase: TRAIN
  }
  transform_param {
    mean_file: "J:/WQZ22022/NN_DATA/DATA_SET/general-51/simple_data/TOTAL/train/labels/mean/mean.binaryproto"
  }
  data_param {
    source: "J:/WQZ22022/NN_DATA/DATA_SET/general-51/simple_data/TOTAL/train/labels/LMDB"
    batch_size: 32
    backend: LMDB
  }
}
layer {
  name: "conv1"
  type: "Convolution"
  bottom: "data"
  top: "conv1"
  param {
    lr_mult: 1
  }
  param {
    lr_mult: 2
  }
  convolution_param {
    num_output: 32
    pad: 2
    kernel_size: 5
    stride: 1
    weight_filler {
      type: "gaussian"
      std: 0.0001
    }
    bias_filler {
      type: "constant"
    }
  }
}
layer {
  name: "pool1"
  type: "Pooling"
  bottom: "conv1"
  top: "pool1"
  pooling_param {
    pool: MAX
    kernel_size: 3
    stride: 2
  }
}
layer {
  name: "relu1"
  type: "ReLU"
  bottom: "pool1"
  top: "pool1"
}
layer {
  name: "norm1"
  type: "LRN"
  bottom: "pool1"
  top: "norm1"
  lrn_param {
    local_size: 3
    alpha: 5e-05
    beta: 0.75
    norm_region: WITHIN_CHANNEL
  }
}
layer {
  name: "conv2"
  type: "Convolution"
  bottom: "norm1"
  top: "conv2"
  param {
    lr_mult: 1
  }
  param {
    lr_mult: 2
  }
  convolution_param {
    num_output: 32
    pad: 2
    kernel_size: 5
    stride: 1
    weight_filler {
      type: "gaussian"
      std: 0.01
    }
    bias_filler {
      type: "constant"
    }
  }
}
layer {
  name: "relu2"
  type: "ReLU"
  bottom: "conv2"
  top: "conv2"
}
layer {
  name: "pool2"
  type: "Pooling"
  bottom: "conv2"
  top: "pool2"
  pooling_param {
    pool: AVE
    kernel_size: 3
    stride: 2
  }
}
layer {
  name: "norm2"
  type: "LRN"
  bottom: "pool2"
  top: "norm2"
  lrn_param {
    local_size: 3
    alpha: 5e-05
    beta: 0.75
    norm_region: WITHIN_CHANNEL
  }
}
layer {
  name: "conv3"
  type: "Convolution"
  bottom: "norm2"
  top: "conv3"
  convolution_param {
    num_output: 64
    pad: 2
    kernel_size: 5
    stride: 1
    weight_filler {
      type: "gaussian"
      std: 0.01
    }
    bias_filler {
      type: "constant"
    }
  }
}
layer {
  name: "relu3"
  type: "ReLU"
  bottom: "conv3"
  top: "conv3"
}
layer {
  name: "pool3"
  type: "Pooling"
  bottom: "conv3"
  top: "pool3"
  pooling_param {
    pool: AVE
    kernel_size: 3
    stride: 2
  }
}
layer {
  name: "ip1"
  type: "InnerProduct"
  bottom: "pool3"
  top: "ip1"
  param {
    lr_mult: 1
    decay_mult: 250
  }
  param {
    lr_mult: 2
    decay_mult: 0
  }
  inner_product_param {
    num_output: 55
    weight_filler {
      type: "gaussian"
      std: 0.01
    }
    bias_filler {
      type: "constant"
    }
  }
}
layer {
  name: "loss"
  type: "SoftmaxWithLoss"
  bottom: "ip1"
  bottom: "label"
  top: "loss"
}
I1211 22:31:47.002421 14212 layer_factory.cpp:58] Creating layer cifar
I1211 22:31:47.009419 14212 db_lmdb.cpp:40] Opened lmdb J:/WQZ22022/NN_DATA/DATA_SET/general-51/simple_data/TOTAL/train/labels/LMDB
I1211 22:31:47.009419 14212 net.cpp:84] Creating Layer cifar
I1211 22:31:47.010418 14212 net.cpp:380] cifar -> data
I1211 22:31:47.010418 14212 net.cpp:380] cifar -> label
I1211 22:31:47.010418 14212 data_transformer.cpp:25] Loading mean file from: J:/WQZ22022/NN_DATA/DATA_SET/general-51/simple_data/TOTAL/train/labels/mean/mean.binaryproto
I1211 22:31:47.012419 14212 data_layer.cpp:45] output data size: 32,3,128,128
I1211 22:31:47.026413 14212 common.cpp:36] System entropy source not available, using fallback algorithm to generate seed instead.
I1211 22:31:47.026413 14212 net.cpp:122] Setting up cifar
I1211 22:31:47.027413 14212 net.cpp:129] Top shape: 32 3 128 128 (1572864)
I1211 22:31:47.027413 14212 net.cpp:129] Top shape: 32 (32)
I1211 22:31:47.028414 14212 net.cpp:137] Memory required for data: 6291584
I1211 22:31:47.028414 10624 common.cpp:36] System entropy source not available, using fallback algorithm to generate seed instead.
I1211 22:31:47.028414 14212 layer_factory.cpp:58] Creating layer conv1
I1211 22:31:47.034413 14212 net.cpp:84] Creating Layer conv1
I1211 22:31:47.034413 14212 net.cpp:406] conv1 <- data
I1211 22:31:47.035411 14212 net.cpp:380] conv1 -> conv1
I1211 22:31:47.284332 14212 net.cpp:122] Setting up conv1
I1211 22:31:47.284332 14212 net.cpp:129] Top shape: 32 32 128 128 (16777216)
I1211 22:31:47.285331 14212 net.cpp:137] Memory required for data: 73400448
I1211 22:31:47.285331 14212 layer_factory.cpp:58] Creating layer pool1
I1211 22:31:47.285331 14212 net.cpp:84] Creating Layer pool1
I1211 22:31:47.286330 14212 net.cpp:406] pool1 <- conv1
I1211 22:31:47.286330 14212 net.cpp:380] pool1 -> pool1
I1211 22:31:47.286330 14212 net.cpp:122] Setting up pool1
I1211 22:31:47.286330 14212 net.cpp:129] Top shape: 32 32 64 64 (4194304)
I1211 22:31:47.287330 14212 net.cpp:137] Memory required for data: 90177664
I1211 22:31:47.287330 14212 layer_factory.cpp:58] Creating layer relu1
I1211 22:31:47.287330 14212 net.cpp:84] Creating Layer relu1
I1211 22:31:47.287330 14212 net.cpp:406] relu1 <- pool1
I1211 22:31:47.288331 14212 net.cpp:367] relu1 -> pool1 (in-place)
I1211 22:31:47.290329 14212 net.cpp:122] Setting up relu1
I1211 22:31:47.290329 14212 net.cpp:129] Top shape: 32 32 64 64 (4194304)
I1211 22:31:47.290329 14212 net.cpp:137] Memory required for data: 106954880
I1211 22:31:47.290329 14212 layer_factory.cpp:58] Creating layer norm1
I1211 22:31:47.291329 14212 net.cpp:84] Creating Layer norm1
I1211 22:31:47.291329 14212 net.cpp:406] norm1 <- pool1
I1211 22:31:47.291329 14212 net.cpp:380] norm1 -> norm1
I1211 22:31:47.293329 14212 net.cpp:122] Setting up norm1
I1211 22:31:47.293329 14212 net.cpp:129] Top shape: 32 32 64 64 (4194304)
I1211 22:31:47.293329 14212 net.cpp:137] Memory required for data: 123732096
I1211 22:31:47.294328 14212 layer_factory.cpp:58] Creating layer conv2
I1211 22:31:47.294328 14212 net.cpp:84] Creating Layer conv2
I1211 22:31:47.294328 14212 net.cpp:406] conv2 <- norm1
I1211 22:31:47.294328 14212 net.cpp:380] conv2 -> conv2
I1211 22:31:47.302325 14212 net.cpp:122] Setting up conv2
I1211 22:31:47.302325 14212 net.cpp:129] Top shape: 32 32 64 64 (4194304)
I1211 22:31:47.303325 14212 net.cpp:137] Memory required for data: 140509312
I1211 22:31:47.303325 14212 layer_factory.cpp:58] Creating layer relu2
I1211 22:31:47.303325 14212 net.cpp:84] Creating Layer relu2
I1211 22:31:47.304325 14212 net.cpp:406] relu2 <- conv2
I1211 22:31:47.304325 14212 net.cpp:367] relu2 -> conv2 (in-place)
I1211 22:31:47.308324 14212 net.cpp:122] Setting up relu2
I1211 22:31:47.308324 14212 net.cpp:129] Top shape: 32 32 64 64 (4194304)
I1211 22:31:47.309324 14212 net.cpp:137] Memory required for data: 157286528
I1211 22:31:47.309324 14212 layer_factory.cpp:58] Creating layer pool2
I1211 22:31:47.315322 14212 net.cpp:84] Creating Layer pool2
I1211 22:31:47.316323 14212 net.cpp:406] pool2 <- conv2
I1211 22:31:47.316323 14212 net.cpp:380] pool2 -> pool2
I1211 22:31:47.319320 14212 net.cpp:122] Setting up pool2
I1211 22:31:47.319320 14212 net.cpp:129] Top shape: 32 32 32 32 (1048576)
I1211 22:31:47.319320 14212 net.cpp:137] Memory required for data: 161480832
I1211 22:31:47.320320 14212 layer_factory.cpp:58] Creating layer norm2
I1211 22:31:47.320320 14212 net.cpp:84] Creating Layer norm2
I1211 22:31:47.320320 14212 net.cpp:406] norm2 <- pool2
I1211 22:31:47.321321 14212 net.cpp:380] norm2 -> norm2
I1211 22:31:47.323318 14212 net.cpp:122] Setting up norm2
I1211 22:31:47.323318 14212 net.cpp:129] Top shape: 32 32 32 32 (1048576)
I1211 22:31:47.323318 14212 net.cpp:137] Memory required for data: 165675136
I1211 22:31:47.324319 14212 layer_factory.cpp:58] Creating layer conv3
I1211 22:31:47.324319 14212 net.cpp:84] Creating Layer conv3
I1211 22:31:47.324319 14212 net.cpp:406] conv3 <- norm2
I1211 22:31:47.324319 14212 net.cpp:380] conv3 -> conv3
I1211 22:31:47.339315 14212 net.cpp:122] Setting up conv3
I1211 22:31:47.340314 14212 net.cpp:129] Top shape: 32 64 32 32 (2097152)
I1211 22:31:47.340314 14212 net.cpp:137] Memory required for data: 174063744
I1211 22:31:47.340314 14212 layer_factory.cpp:58] Creating layer relu3
I1211 22:31:47.341313 14212 net.cpp:84] Creating Layer relu3
I1211 22:31:47.341313 14212 net.cpp:406] relu3 <- conv3
I1211 22:31:47.341313 14212 net.cpp:367] relu3 -> conv3 (in-place)
I1211 22:31:47.347312 14212 net.cpp:122] Setting up relu3
I1211 22:31:47.348312 14212 net.cpp:129] Top shape: 32 64 32 32 (2097152)
I1211 22:31:47.348312 14212 net.cpp:137] Memory required for data: 182452352
I1211 22:31:47.348312 14212 layer_factory.cpp:58] Creating layer pool3
I1211 22:31:47.349313 14212 net.cpp:84] Creating Layer pool3
I1211 22:31:47.349313 14212 net.cpp:406] pool3 <- conv3
I1211 22:31:47.350311 14212 net.cpp:380] pool3 -> pool3
I1211 22:31:47.353309 14212 net.cpp:122] Setting up pool3
I1211 22:31:47.353309 14212 net.cpp:129] Top shape: 32 64 16 16 (524288)
I1211 22:31:47.353309 14212 net.cpp:137] Memory required for data: 184549504
I1211 22:31:47.354310 14212 layer_factory.cpp:58] Creating layer ip1
I1211 22:31:47.354310 14212 net.cpp:84] Creating Layer ip1
I1211 22:31:47.354310 14212 net.cpp:406] ip1 <- pool3
I1211 22:31:47.355309 14212 net.cpp:380] ip1 -> ip1
I1211 22:31:47.368305 14212 net.cpp:122] Setting up ip1
I1211 22:31:47.368305 14212 net.cpp:129] Top shape: 32 55 (1760)
I1211 22:31:47.369305 14212 net.cpp:137] Memory required for data: 184556544
I1211 22:31:47.369305 14212 layer_factory.cpp:58] Creating layer loss
I1211 22:31:47.369305 14212 net.cpp:84] Creating Layer loss
I1211 22:31:47.370304 14212 net.cpp:406] loss <- ip1
I1211 22:31:47.370304 14212 net.cpp:406] loss <- label
I1211 22:31:47.370304 14212 net.cpp:380] loss -> loss
I1211 22:31:47.371304 14212 layer_factory.cpp:58] Creating layer loss
…
I1211 22:31:47.381302 14212 net.cpp:294] The NetState phase (1) differed from the phase (0) specified by a rule in layer cifar
I1211 22:31:47.381302 14212 net.cpp:51] Initializing net from parameters:
name: "CIFAR10_full"
state {
  phase: TEST
}
layer {
  name: "cifar"
  type: "Data"
  top: "data"
  top: "label"
  include {
    phase: TEST
  }
  transform_param {
    mean_file: "J:/WQZ22022/NN_DATA/DATA_SET/general-51/simple_data/TOTAL/train/labels/mean/mean.binaryproto"
  }
  data_param {
    source: "J:/WQZ22022/NN_DATA/DATA_SET/general-51/simple_data/TOTAL/val/labels/LMDB"
    batch_size: 10
    backend: LMDB
  }
}
layer {
  name: "conv1"
  type: "Convolution"
  bottom: "data"
  top: "conv1"
  param {
    lr_mult: 1
  }
  param {
    lr_mult: 2
  }
  convolution_param {
    num_output: 32
    pad: 2
    kernel_size: 5
    stride: 1
    weight_filler {
      type: "gaussian"
      std: 0.0001
    }
    bias_filler {
      type: "constant"
    }
  }
}
layer {
  name: "pool1"
  type: "Pooling"
  bottom: "conv1"
  top: "pool1"
  pooling_param {
    pool: MAX
    kernel_size: 3
    stride: 2
  }
}
layer {
  name: "relu1"
  type: "ReLU"
  bottom: "pool1"
  top: "pool1"
}
layer {
  name: "norm1"
  type: "LRN"
  bottom: "pool1"
  top: "norm1"
  lrn_param {
    local_size: 3
    alpha: 5e-05
    beta: 0.75
    norm_region: WITHIN_CHANNEL
  }
}
layer {
  name: "conv2"
  type: "Convolution"
  bottom: "norm1"
  top: "conv2"
  param {
    lr_mult: 1
  }
  param {
    lr_mult: 2
  }
  convolution_param {
    num_output: 32
    pad: 2
    kernel_size: 5
    stride: 1
    weight_filler {
      type: "gaussian"
      std: 0.01
    }
    bias_filler {
      type: "constant"
    }
  }
}
layer {
  name: "relu2"
  type: "ReLU"
  bottom: "conv2"
  top: "conv2"
}
layer {
  name: "pool2"
  type: "Pooling"
  bottom: "conv2"
  top: "pool2"
  pooling_param {
    pool: AVE
    kernel_size: 3
    stride: 2
  }
}
layer {
  name: "norm2"
  type: "LRN"
  bottom: "pool2"
  top: "norm2"
  lrn_param {
    local_size: 3
    alpha: 5e-05
    beta: 0.75
    norm_region: WITHIN_CHANNEL
  }
}
layer {
  name: "conv3"
  type: "Convolution"
  bottom: "norm2"
  top: "conv3"
  convolution_param {
    num_output: 64
    pad: 2
    kernel_size: 5
    stride: 1
    weight_filler {
      type: "gaussian"
      std: 0.01
    }
    bias_filler {
      type: "constant"
    }
  }
}
layer {
  name: "relu3"
  type: "ReLU"
  bottom: "conv3"
  top: "conv3"
}
layer {
  name: "pool3"
  type: "Pooling"
  bottom: "conv3"
  top: "pool3"
  pooling_param {
    pool: AVE
    kernel_size: 3
    stride: 2
  }
}
layer {
  name: "ip1"
  type: "InnerProduct"
  bottom: "pool3"
  top: "ip1"
  param {
    lr_mult: 1
    decay_mult: 250
  }
  param {
    lr_mult: 2
    decay_mult: 0
  }
  inner_product_param {
    num_output: 55
    weight_filler {
      type: "gaussian"
      std: 0.01
    }
    bias_filler {
      type: "constant"
    }
  }
}
layer {
  name: "accuracy"
  type: "Accuracy"
  bottom: "ip1"
  bottom: "label"
  top: "accuracy"
  include {
    phase: TEST
  }
}
layer {
  name: "loss"
  type: "SoftmaxWithLoss"
  bottom: "ip1"
  bottom: "label"
  top: "loss"
}
I1211 22:31:47.382302 14212 layer_factory.cpp:58] Creating layer cifar
I1211 22:31:47.389298 14212 db_lmdb.cpp:40] Opened lmdb J:/WQZ22022/NN_DATA/DATA_SET/general-51/simple_data/TOTAL/val/labels/LMDB
I1211 22:31:47.390297 14212 net.cpp:84] Creating Layer cifar
I1211 22:31:47.392298 14212 net.cpp:380] cifar -> data
I1211 22:31:47.393298 14212 net.cpp:380] cifar -> label
I1211 22:31:47.394297 14212 data_transformer.cpp:25] Loading mean file from: J:/WQZ22022/NN_DATA/DATA_SET/general-51/simple_data/TOTAL/train/labels/mean/mean.binaryproto
I1211 22:31:47.396297 14212 data_layer.cpp:45] output data size: 10,3,128,128
I1211 22:31:47.403293 14212 net.cpp:122] Setting up cifar
I1211 22:31:47.403293 14212 net.cpp:129] Top shape: 10 3 128 128 (491520)
I1211 22:31:47.404294 14212 net.cpp:129] Top shape: 10 (10)
I1211 22:31:47.404294  8448 common.cpp:36] System entropy source not available, using fallback algorithm to generate seed instead.
I1211 22:31:47.404294 14212 net.cpp:137] Memory required for data: 1966120
I1211 22:31:47.406293 14212 layer_factory.cpp:58] Creating layer label_cifar_1_split
I1211 22:31:47.406293 14212 net.cpp:84] Creating Layer label_cifar_1_split
I1211 22:31:47.407292 14212 net.cpp:406] label_cifar_1_split <- label
I1211 22:31:47.407292 14212 net.cpp:380] label_cifar_1_split -> label_cifar_1_split_0
I1211 22:31:47.407292 14212 net.cpp:380] label_cifar_1_split -> label_cifar_1_split_1
I1211 22:31:47.408291 14212 net.cpp:122] Setting up label_cifar_1_split
I1211 22:31:47.408291 14212 net.cpp:129] Top shape: 10 (10)
I1211 22:31:47.408291 14212 net.cpp:129] Top shape: 10 (10)
I1211 22:31:47.408291 14212 net.cpp:137] Memory required for data: 1966200
I1211 22:31:47.409291 14212 layer_factory.cpp:58] Creating layer conv1
I1211 22:31:47.409291 14212 net.cpp:84] Creating Layer conv1
I1211 22:31:47.409291 14212 net.cpp:406] conv1 <- data
I1211 22:31:47.409291 14212 net.cpp:380] conv1 -> conv1
I1211 22:31:47.419288 14212 net.cpp:122] Setting up conv1
I1211 22:31:47.419288 14212 net.cpp:129] Top shape: 10 32 128 128 (5242880)
I1211 22:31:47.420289 14212 net.cpp:137] Memory required for data: 22937720
I1211 22:31:47.421288 14212 layer_factory.cpp:58] Creating layer pool1
I1211 22:31:47.422288 14212 net.cpp:84] Creating Layer pool1
I1211 22:31:47.422288 14212 net.cpp:406] pool1 <- conv1
I1211 22:31:47.422288 14212 net.cpp:380] pool1 -> pool1
I1211 22:31:47.422288 14212 net.cpp:122] Setting up pool1
I1211 22:31:47.423287 14212 net.cpp:129] Top shape: 10 32 64 64 (1310720)
I1211 22:31:47.423287 14212 net.cpp:137] Memory required for data: 28180600
I1211 22:31:47.423287 14212 layer_factory.cpp:58] Creating layer relu1
I1211 22:31:47.423287 14212 net.cpp:84] Creating Layer relu1
I1211 22:31:47.424288 14212 net.cpp:406] relu1 <- pool1
I1211 22:31:47.424288 14212 net.cpp:367] relu1 -> pool1 (in-place)
I1211 22:31:47.426286 14212 net.cpp:122] Setting up relu1
I1211 22:31:47.429286 14212 net.cpp:129] Top shape: 10 32 64 64 (1310720)
I1211 22:31:47.430286 14212 net.cpp:137] Memory required for data: 33423480
I1211 22:31:47.431285 14212 layer_factory.cpp:58] Creating layer norm1
I1211 22:31:47.431285 14212 net.cpp:84] Creating Layer norm1
I1211 22:31:47.432286 14212 net.cpp:406] norm1 <- pool1
I1211 22:31:47.432286 14212 net.cpp:380] norm1 -> norm1
I1211 22:31:47.436285 14212 net.cpp:122] Setting up norm1
I1211 22:31:47.437283 14212 net.cpp:129] Top shape: 10 32 64 64 (1310720)
I1211 22:31:47.437283 14212 net.cpp:137] Memory required for data: 38666360
I1211 22:31:47.438282 14212 layer_factory.cpp:58] Creating layer conv2
I1211 22:31:47.438282 14212 net.cpp:84] Creating Layer conv2
I1211 22:31:47.438282 14212 net.cpp:406] conv2 <- norm1
I1211 22:31:47.439282 14212 net.cpp:380] conv2 -> conv2
I1211 22:31:47.446280 14212 net.cpp:122] Setting up conv2
I1211 22:31:47.446280 14212 net.cpp:129] Top shape: 10 32 64 64 (1310720)
I1211 22:31:47.447279 14212 net.cpp:137] Memory required for data: 43909240
I1211 22:31:47.447279 14212 layer_factory.cpp:58] Creating layer relu2
I1211 22:31:47.448280 14212 net.cpp:84] Creating Layer relu2
I1211 22:31:47.448280 14212 net.cpp:406] relu2 <- conv2
I1211 22:31:47.448280 14212 net.cpp:367] relu2 -> conv2 (in-place)
I1211 22:31:47.453279 14212 net.cpp:122] Setting up relu2
I1211 22:31:47.454278 14212 net.cpp:129] Top shape: 10 32 64 64 (1310720)
I1211 22:31:47.454278 14212 net.cpp:137] Memory required for data: 49152120
I1211 22:31:47.454278 14212 layer_factory.cpp:58] Creating layer pool2
I1211 22:31:47.455277 14212 net.cpp:84] Creating Layer pool2
I1211 22:31:47.455277 14212 net.cpp:406] pool2 <- conv2
I1211 22:31:47.455277 14212 net.cpp:380] pool2 -> pool2
I1211 22:31:47.457276 14212 net.cpp:122] Setting up pool2
I1211 22:31:47.457276 14212 net.cpp:129] Top shape: 10 32 32 32 (327680)
I1211 22:31:47.457276 14212 net.cpp:137] Memory required for data: 50462840
I1211 22:31:47.458276 14212 layer_factory.cpp:58] Creating layer norm2
I1211 22:31:47.458276 14212 net.cpp:84] Creating Layer norm2
I1211 22:31:47.458276 14212 net.cpp:406] norm2 <- pool2
I1211 22:31:47.459275 14212 net.cpp:380] norm2 -> norm2
I1211 22:31:47.462275 14212 net.cpp:122] Setting up norm2
I1211 22:31:47.462275 14212 net.cpp:129] Top shape: 10 32 32 32 (327680)
I1211 22:31:47.463275 14212 net.cpp:137] Memory required for data: 51773560
I1211 22:31:47.463275 14212 layer_factory.cpp:58] Creating layer conv3
I1211 22:31:47.463275 14212 net.cpp:84] Creating Layer conv3
I1211 22:31:47.463275 14212 net.cpp:406] conv3 <- norm2
I1211 22:31:47.464275 14212 net.cpp:380] conv3 -> conv3
I1211 22:31:47.471272 14212 net.cpp:122] Setting up conv3
I1211 22:31:47.472271 14212 net.cpp:129] Top shape: 10 64 32 32 (655360)
I1211 22:31:47.472271 14212 net.cpp:137] Memory required for data: 54395000
I1211 22:31:47.472271 14212 layer_factory.cpp:58] Creating layer relu3
I1211 22:31:47.472271 14212 net.cpp:84] Creating Layer relu3
I1211 22:31:47.473271 14212 net.cpp:406] relu3 <- conv3
I1211 22:31:47.473271 14212 net.cpp:367] relu3 -> conv3 (in-place)
I1211 22:31:47.476270 14212 net.cpp:122] Setting up relu3
I1211 22:31:47.476270 14212 net.cpp:129] Top shape: 10 64 32 32 (655360)
I1211 22:31:47.477270 14212 net.cpp:137] Memory required for data: 57016440
I1211 22:31:47.477270 14212 layer_factory.cpp:58] Creating layer pool3
I1211 22:31:47.478271 14212 net.cpp:84] Creating Layer pool3
I1211 22:31:47.478271 14212 net.cpp:406] pool3 <- conv3
I1211 22:31:47.479269 14212 net.cpp:380] pool3 -> pool3
I1211 22:31:47.483269 14212 net.cpp:122] Setting up pool3
I1211 22:31:47.483269 14212 net.cpp:129] Top shape: 10 64 16 16 (163840)
I1211 22:31:47.483269 14212 net.cpp:137] Memory required for data: 57671800
I1211 22:31:47.483269 14212 layer_factory.cpp:58] Creating layer ip1
I1211 22:31:47.484268 14212 net.cpp:84] Creating Layer ip1
I1211 22:31:47.484268 14212 net.cpp:406] ip1 <- pool3
I1211 22:31:47.484268 14212 net.cpp:380] ip1 -> ip1
I1211 22:31:47.498267 14212 net.cpp:122] Setting up ip1
I1211 22:31:47.499264 14212 net.cpp:129] Top shape: 10 55 (550)
I1211 22:31:47.499264 14212 net.cpp:137] Memory required for data: 57674000
I1211 22:31:47.500263 14212 layer_factory.cpp:58] Creating layer ip1_ip1_0_split
I1211 22:31:47.500263 14212 net.cpp:84] Creating Layer ip1_ip1_0_split
I1211 22:31:47.500263 14212 net.cpp:406] ip1_ip1_0_split <- ip1
I1211 22:31:47.500263 14212 net.cpp:380] ip1_ip1_0_split -> ip1_ip1_0_split_0
I1211 22:31:47.501262 14212 net.cpp:380] ip1_ip1_0_split -> ip1_ip1_0_split_1
I1211 22:31:47.501262 14212 net.cpp:122] Setting up ip1_ip1_0_split
I1211 22:31:47.501262 14212 net.cpp:129] Top shape: 10 55 (550)
I1211 22:31:47.502264 14212 net.cpp:129] Top shape: 10 55 (550)
I1211 22:31:47.502264 14212 net.cpp:137] Memory required for data: 57678400
I1211 22:31:47.503263 14212 layer_factory.cpp:58] Creating layer accuracy
I1211 22:31:47.503263 14212 net.cpp:84] Creating Layer accuracy
I1211 22:31:47.504262 14212 net.cpp:406] accuracy <- ip1_ip1_0_split_0
I1211 22:31:47.504262 14212 net.cpp:406] accuracy <- label_cifar_1_split_0
I1211 22:31:47.504262 14212 net.cpp:380] accuracy -> accuracy
…
